…
https://localhost:8080/"},"id":"_qdTa1iEwBE3","executionInfo":{"status":"ok","timestamp":1662099229119,"user_tz":-540,"elapsed":3626,"user":{"displayName":"jihye OH","userId":"13553027699751294051"}},"outputId":"3980ccbb-422b-4339-aa8c-9bd0119d6d8b"},"execution_count":null,"outputs":[{"output_type":"stream","name":"stdout","text":["Model: \"sequential\"\n","_________________________________________________________________\n"," Layer (type)                Output Shape              Param #   \n","=================================================================\n"," batch_normalization (BatchN  (None, 9)                36        \n"," ormalization)                                                   \n","                                                                 \n"," dense (Dense)               (None, 18)                180       \n","                                                                 \n"," dense_1 (Dense)             (None, 36)                684       \n","                                                                 \n"," dense_2 (Dense)             (None, 72)                2664      \n","                                                                 \n"," dense_3 (Dense)             (None, 144)               10512     \n","                                                                 \n"," batch_normalization_1 (Batc  (None, 144)              576       \n"," hNormalization)                                                 \n","                                                                 \n"," dense_4 (Dense)             (None, 128)               18560     \n","                                                                 \n"," dense_5 (Dense)             (None, 64)                8256      \n","                                                                 \n"," dense_6 (Dense)             (None, 32)                2080      \n","                                                                 \n"," dense_7 (Dense)             (None, 16)                528       \n","                                                                 \n"," dense_8 (Dense)             (None, 8)                 136       \n","                                                                 \n"," dense_9 (Dense)             (None, 4)                 36        \n","                                                                 \n"," dense_10 (Dense)            (None, 2)                 10        \n","                                                                 \n"," batch_normalization_2 (Batc  (None, 2)                8         \n"," hNormalization)                                                 \n","                                                                 \n"," dense_11 (Dense)            (None, 1)                 3         \n","                                                                 \n","=================================================================\n","Total params: 44,269\n","Trainable params: 43,959\n","Non-trainable params: 310\n","_________________________________________________________________\n"]}]},{"cell_type":"code","source":["optimizer = tf.keras.optimizers.Adam(0.001)\n","model.comp
…
